Dec 28-29/29-12-2024-c4de2b09ac9b498c4afe6f2c4c9538b9/trained_model/mnist_digit_classifier.pth (torch, 440350 bytes, 6 tensors)

fc1.weight f4 [128, 784]
000000 de d6 a9 bc 9e a2 b3 3c ae be bd bc a5 98 b4 bc
       -0.02073234 0.021928128 -0.023162212 -0.022045443
000010 86 b7 7b 3b 6e 76 ab 3c fe 44 bf 3b 91 b9 39 bb
       0.003840895 0.020930495 0.005837082 -0.0028339366
000020 fa f8 c6 bc 56 05 3c bc 5a b2 f1 bc 51 b0 4d 3b
       -0.024288643 -0.011475882 -0.02950399 0.003138561
000030 e8 d2 0f bc 12 73 19 3d b5 2f 6b bc 90 b6 c2 3b
       -0.008778311 0.037463255 -0.014354636 0.0059421733
000040 12 01 15 3d 95 83 8c 3c 2c ea af bc c1 91 d9 3c
       0.036377974 0.017152587 -0.021473967 0.026558759
000050 5b b3 13 3d 71 72 da bb 94 1b 29 3c 81 0a c9 3c
       0.03605972 -0.0066664745 0.010321517 0.024541141
000060 9a 23 f8 bc 3a 52 b7 3c c7 37 d3 bc b9 8a 80 3b
       -0.030290414 0.022378076 -0.025783433 0.003922787
000070 3d 8f 27 3b d9 92 32 3c c3 16 c0 3c 43 ae 9b bc
       0.0025567554 0.010899269 0.023448354 -0.019003993
000080 79 bb 0e 3d df 8c 0f 39 03 b3 a3 3c 98 ec 94 3c
       0.034846757 0.00013690021 0.01998282 0.018179223
000090 96 e4 7a bc 93 6e af 3c c0 34 f0 bc 0f 9a f2 3c
       -0.015313288 0.02141503 -0.029322028 0.029614476
0000a0 91 09 93 bc bc 18 ff 3b 98 7f 2b 3c fe 29 8b bc
       -0.017948898 0.007784931 0.010467432 -0.016987797
0000b0 63 e2 55 bb e8 46 2f ba 9e d3 ca bc 16 d1 ef bc
       -0.0032636158 -0.0006686286 -0.02475911 -0.029274505
0000c0 ec 12 c4 bc 93 07 e7 3c 94 9e 78 3c bd 7a ff 3b
       -0.023934804 0.028201854 0.015174527 0.007796614
0000d0 d4 ff 89 3c 3d b3 1b 3c 6e 99 7c bc 2b 6b 2a 3c
       0.016845621 0.009503183 -0.01541744 0.010401527
0000e0 c3 33 f0 3c ba 70 e3 3c ad 5c 16 3d 8a ce a4 3c
       0.029321557 0.027763713 0.036709476 0.020118017
0000f0 73 d6 c4 3c 7b a3 00 bc 28 72 d9 3c ac 2f d5 3c
       0.024028039 -0.007851477 0.026543692 0.026023708
000100 9a d8 cd bc 20 86 b4 bc dd 7b 76 bc 8f 87 90 3c
       -0.025127698 -0.022036612 -0.01504418 0.017642764
000110 79 87 db 3c 90 4c 3b bc 89 cc 5a 3c 8d 00 be 3c
       0.026797997 -0.011431828 0.013354429 0.023193622
000120 16 5a 8c 3b f6 48 72 bc 35 12 e5 bc 74 bd 05 3d
       0.0042832 -0.014787903 -0.027962783 0.03265138
000130 db 67 45 bb 73 f2 f4 3c 87 e4 c6 ba 75 a9 f5 3c
       -0.0030121717 0.029900765 -0.0015174308 0.02998803
000140 43 47 e8 bc 29 7f 99 bb 74 be 51 3c 92 0d 0b bc
       -0.028354293 -0.004684348 0.012801755 -0.008487122
000150 fc fe 0c 3c 9a be 90 3a 17 b2 8a 3c 1e 6c f0 bb
       0.008605715 0.0011043132 0.016930623 -0.0073371073
000160 3f da 01 bc 60 c2 41 bc cc 99 c7 3c 66 04 f0 bc
       -0.007925569 -0.011826128 0.024365328 -0.029298972
000170 07 57 6b 3b 68 4e b4 3c 24 89 ce 3c 5e ba c8 bc
       0.0035910027 0.022010043 0.025211878 -0.02450293
000180 a0 82 16 3d 30 a7 81 bb 6c ce 80 bb d2 d3 83 bc
       0.036745667 -0.003956698 -0.0039308574 -0.016092215
000190 b1 53 f0 bc 5c fc 9f bc 13 33 0f 3d 4a 2a f4 bc
       -0.029336782 -0.019529514 0.034960818 -0.029805321
0001a0 fb 65 dc bc 6f d2 1e 3d 77 3b e3 3c c1 c8 c5 3c
       -0.026904097 0.038774904 0.027738316 0.024143578
0001b0 0e 1f 9b 3c 95 04 bb bc 10 30 36 3c 55 87 24 3d
       0.018935706 -0.022829333 0.011119857 0.040168125
0001c0 ce 7d 61 bc 3d 43 d2 bb ed 93 73 bc f7 0f 47 ba
       -0.013762904 -0.006416707 -0.014866811 -0.00075936265
0001d0 e3 e1 9c bc 95 bf 8f bc 2d c9 0a bc 18 6c 22 3c
       -0.01915068 -0.017547408 -0.008470816 0.009913467
0001e0 f8 30 dd bc 4c fe 50 bb 16 8b b6 ba f6 5e 95 3c
       -0.02700089 -0.0031889854 -0.0013926949 0.018233757
0001f0 6b a4 2a bc 3f 7a 89 3c fc 05 e3 3c 8f 09 a9 3c
       -0.010415177 0.016781924 0.027712815 0.02063444
000200 f9 2d 12 bd 65 d2 c3 bc 04 e8 e9 3c b8 49 be 3c
       -0.035688374 -0.023904035 0.028553016 0.023228511
000210 61 e2 b0 bc 65 d1 02 3d ea 3b ef 3c e6 92 da bc
       -0.02159232 0.031937975 0.029203374 -0.026681375
000220 22 9d ed bc f2 63 2d bc 59 bf 3c bb 29 be a8 bc
       -0.02900559 -0.010582911 -0.0028800576 -0.020598488
000230 f4 2f 08 3d 2d 80 04 3c 30 f4 6c 3c a1 78 d9 3c
       0.033248857 0.0080872 0.014462516 0.026546778
000240 c5 32 f9 3c 6e e0 0a 3c ff bf 6b bc be 4c c4 bc
       0.030419717 0.00847636 -0.014389037 -0.023962375
000250 ae d3 fe bc 57 b7 20 bb 06 94 e2 3c f8 16 40 bb
       -0.031106796 -0.0024523342 0.027658474 -0.0029310565
000260 60 77 19 bb 1c a4 85 bc d1 7a 60 bc b2 23 e6 bc
       -0.00234171 -0.016313605 -0.013701157 -0.028093193
000270 96 a0 0b 3d f2 80 9b bc 3f ff db bb f9 95 96 3c
       0.034088694 -0.018982384 -0.0067137773 0.01838206
000280 8d c0 12 3d ad fa 48 bb 0b b6 e9 3c 15 bb 90 bc
       0.035828162 -0.0030666993 0.028529188 -0.017667333
000290 ef 6e 3c 3b 0a b2 fa 3c 21 67 08 3c 34 e6 23 3c
       0.0028752645 0.030602474 0.008325369 0.010003615
0002a0 e3 11 58 3b cc d3 d0 bc 15 c6 f8 bc 46 c9 03 3d
       0.0032969646 -0.025491618 -0.03036789 0.03217437
0002b0 3f c0 03 3c b8 6e 39 bc 7b cd e2 3b c3 97 f4 3b
       0.0080414405 -0.011317901 0.006921468 0.0074643805
0002c0 fb 75 87 3c ee da 90 bc e7 1f f2 3a fa 43 9e b9
       0.01653575 -0.017682519 0.0018472642 -0.00030186755
0002d0 08 e2 a7 3c 68 13 46 bc 33 18 e3 bc ab 8e ae 3c
       0.020493522 -0.012089588 -0.0277215 0.021308264
0002e0 5e 22 29 3b e0 70 da 3b 65 ea 8c 3c b9 1e 98 3b
       0.0025807838 0.006666288 0.017201612 0.0046423343
0002f0 01 70 e8 bc b7 9b 82 3c b8 0a bc bb 7a a0 e6 3c
       -0.02837372 0.015943391 -0.0057385825 0.028152693
000300 ef fb 9e bc 0c b2 0a 3d 1c 2e be 3c 8c 06 1f 3d
       -0.01940724 0.033861205 0.023215346 0.038824603
000310 31 14 f0 bb 55 e1 b4 3c 63 b6 a4 3b d5 22 9f 3c
       -0.0073266258 0.022080103 0.005026625 0.019425789
000320 6c 4d 8f 3c 48 2e 00 3d b5 fe c3 bc d9 b8 9b 3a
       0.017492972 0.031294137 -0.023925165 0.001188065
000330 da 83 f3 bc ea ba e7 3c 11 ab af 3b 2e fc 2a 3c
       -0.029725958 0.02828737 0.005360969 0.010436101
000340 c0 71 0c 3d 99 15 a9 3c cd 94 12 3c 57 7d e0 ba
       0.034288168 0.020640181 0.00894661 -0.0017127198
000350 e8 fb d2 bc 83 ca 9b bc f5 58 b6 3b cb 79 05 bd
       -0.025754884 -0.019017464 0.0055648037 -0.032586854
000360 2d 58 cf bc 72 dd db 3c 29 9f 82 b9 41 34 bc 3b
       -0.0253106 0.026838992 -0.00024914116 0.005743534
000370 e9 aa cd 3c fc 62 a6 bc 06 c4 fa bc 21 74 0a bb
       0.02510591 -0.020310871 -0.03061105 -0.0021126347
000380 d3 6d b5 bc b3 b5 32 bb c6 3f f2 bc 82 be 1d 3d
       -0.022147095 -0.0027268946 -0.029571425 0.03851176
000390 2b 97 24 3c 0c ed 86 bc 16 84 bc 3c a4 eb d5 bb
       0.010045807 -0.016470455 0.023012202 -0.0065283347
0003a0 73 6d 8b bb 3c 61 b3 3c 4a 69 84 3c 67 e8 cc bb
       -0.0042549907 0.02189695 0.016163487 -0.0062532905
0003b0 e7 79 a5 3c 84 a1 82 3b 2c 32 d7 3c b8 b9 1a bd
       0.02019973 0.0039865393 0.026269041 -0.03777477
0003c0 f5 09 fc 3b 79 f1 e3 bc 4c 61 37 3c ba 7e bf bc
       0.0076916167 -0.027825104 0.011192631 -0.023375858
0003d0 d0 03 16 3d 9c 8e 25 3c 8b 6b 9a bc 30 5e 8b 3c
       0.03662473 0.0101048015 -0.018850109 0.017012686
0003e0 0e 88 8e 3c 63 16 11 3d 75 7d be bc dc 16 9c 3c
       0.01739886 0.03542174 -0.023253182 0.019053869
0003f0 b6 72 17 3d 27 8a 40 3c 55 0e 6b bc f4 b5 2c 3c
       0.03697463 0.011751688 -0.014346679 0.010541428

fc1.bias f4 [128]
000000 18 89 5c bc 27 2f ed 3c 17 21 46 bd 30 2b c3 bc
       -0.01346042 0.028953148 -0.0483714 -0.023824304
000010 c2 b8 7f bb fe 9f 06 3d d9 6c 7c 3c e1 3c 0f bd
       -0.0039020036 0.032867424 0.015406811 -0.034970168
000020 52 40 3f bc c8 95 38 bc 4e ef 13 bd ff ad 00 bd
       -0.01167305 -0.011266179 -0.03611689 -0.031415936
000030 c7 4a 44 3c fa 57 91 bc 59 d6 80 3b 3e a4 73 bc
       0.011980719 -0.017742146 0.003931802 -0.014870701
000040 5f e1 bf 3c b2 f7 22 3c 78 0c e7 3c ea d8 49 bc
       0.023422895 0.0099467505 0.028204188 -0.012319783
000050 20 b0 b7 bb 63 1d 49 3c 49 db 49 bc ec 52 e1 bc
       -0.0056057125 0.012275073 -0.012320348 -0.02750536
000060 3e aa e0 3c 11 9f 28 3c 32 8f 1e 3c c0 81 cb bc
       0.027424928 0.010291831 0.009677695 -0.024842143
000070 7f 6a bf bc e9 64 82 bd fa 16 9c 3c ca 55 64 3c
       -0.023366211 -0.06366903 0.019053925 0.013936469
000080 37 25 ba 3c ee be 1c 3b 39 d8 90 3c 15 c3 0f bd
       0.022722824 0.0023917514 0.017681228 -0.035098154
000090 52 01 30 3c 2a fa c2 3c f6 74 0b bd c2 ec 2f bd
       0.010742502 0.023800928 -0.03404709 -0.0429504
0000a0 de bb 1a bd f1 aa 26 bd 8e 4e 12 3c 1f 73 94 bb
       -0.03777682 -0.040690366 0.008929862 -0.004530325
0000b0 94 cc a7 bb 33 c8 05 bd 42 4f 8b bb e7 0f 04 bd
       -0.005120823 -0.032661628 -0.0042513916 -0.03224173
0000c0 9f c2 90 3c 16 21 fc bb a0 91 77 bc f4 bf e6 bc
       0.017670928 -0.007694374 -0.015110403 -0.028167702
0000d0 e5 26 f9 bc 82 e1 dd 3b f5 ee 29 bc 78 f0 c3 bb
       -0.030414054 0.0067712674 -0.010371913 -0.005979594
0000e0 87 79 05 bc 24 e4 47 3d b5 1b bb bc ef 29 c7 bc
       -0.00814665 0.048801556 -0.02284036 -0.024311988
0000f0 05 ce 80 bc ae 48 17 bd e1 61 0b 3c 30 da 18 3c
       -0.015723238 -0.036934547 0.008507223 0.009329364
000100 40 44 59 bc 40 bb 17 3c 82 50 78 3b 4e 54 2c bd
       -0.013260901 0.0092609525 0.0037889783 -0.042072587
000110 6f cc bf 39 64 4d 84 3b a3 d1 5c bb 00 a2 9a bc
       0.00036582674 0.004037546 -0.003369429 -0.018876076
000120 ee 5d ef 3c dd 76 94 bd 6a 92 57 bd 54 88 ff 3b
       0.029219594 -0.07249234 -0.052629866 0.007798234
000130 5d 84 d1 bc e2 e2 9b bb ef a7 81 3c 7a 11 8c bc
       -0.025575811 -0.004757271 0.015827147 -0.017098177
000140 7f e2 1b bd 58 aa 1a bb 16 75 f1 bb 6e 40 00 3d
       -0.0380578 -0.0023600068 -0.007368694 0.031311445
000150 28 8a d0 bc 69 fe a4 bc 8f 1b 4b bc 84 e5 ad 3c
       -0.025456503 -0.020140843 -0.012396707 0.021227606
000160 86 fd 02 3c 5e 52 b4 bc 6e 49 4f 3c aa 3a 8a 3b
       0.007995015 -0.022011932 0.012651784 0.004218419
000170 c6 6f bf 3c 87 f7 e8 3c ff 94 f5 bc b4 34 e4 3c
       0.023368727 0.028438343 -0.029978273 0.027857162
000180 5c 15 ee 3a ec 49 d4 3c 35 7a 71 3c 86 82 36 bd
       0.0018164325 0.025914155 0.014738609 -0.04455807
000190 24 5f 25 bc 96 72 1b bd 5d 51 84 3c ca 7b a3 bc
       -0.010093484 -0.037951075 0.016152078 -0.019956488
0001a0 a1 8c a5 bc 7b e1 47 bb 0a c7 27 bd 7c 8e d3 3c
       -0.020208659 -0.0030499387 -0.040961303 0.025824778
0001b0 f0 2d 5c 3c d2 4a e6 3a 00 b1 9a 3c df f8 2d bd
       0.013438687 0.0017569906 0.018883228 -0.04247367
0001c0 c0 eb d8 bc 88 68 48 bd 83 b2 09 3d e1 d6 a6 bc
       -0.026479602 -0.048927814 0.033617508 -0.020366134
0001d0 c6 d0 90 bc 84 06 58 3c 6d 3a 63 3c 53 31 50 bd
       -0.017677676 0.013185147 0.01386891 -0.05082829
0001e0 30 80 fd bc 2d 76 0e bc ef e8 09 bc 11 82 07 bd
       -0.030944914 -0.0086951675 -0.008417352 -0.033083025
0001f0 3d 9e 29 bd ae c7 d3 bc 4a 34 4f bc d9 64 09 3d
       -0.041410673 -0.02585205 -0.012646744 0.03354344

fc2.weight f4 [64, 128]
000000 5a 39 31 3d 03 b3 54 3e 7d 6d d4 3c 7d 48 5c 3e
       0.043267585 0.20771413 0.025931114 0.21512027
000010 89 6c 49 be 7c 48 17 be 67 50 3c be 40 39 2c 3e
       -0.19670309 -0.14773744 -0.18390046 0.16818714
000020 95 92 13 3e cf 34 7f 3e 6d fb 33 3e 0f 4e bb 3b
       0.14411385 0.24922489 0.1757638 0.0057160924
000030 1f ea 0e 3e d6 86 8b 3d f4 f0 d4 bd 2e 3c 6a bb
       0.13956498 0.06812827 -0.10397521 -0.0035741436
000040 36 03 06 3d 30 05 a5 bd 44 ad 3a 3d 9e 75 1d be
       0.032717906 -0.0805763 0.045575395 -0.15376899
000050 05 15 83 3d dc dc 87 3d ba 57 d2 bc 8e 2f 99 3e
       0.064004935 0.066339225 -0.025676597 0.29919094
000060 81 5a 3b 3a b8 4a 09 bc 10 03 a8 bc 03 e8 6f 3e
       0.000714697 -0.008379631 -0.020509273 0.23428349
000070 fd b7 b9 3c 9c ad 50 3c 9d 3e ca 3b 0b 48 bb bd
       0.02267074 0.012736704 0.006172015 -0.091446005
000080 12 be 69 3d 49 84 05 bf 13 f2 73 3d 51 49 e5 bb
       0.05706603 -0.52154976 0.05955703 -0.0069972654
000090 ae 23 80 bd 5c b0 6b bb 8d 0b 93 bd 86 55 ff 3d
       -0.06256805 -0.0035963273 -0.071799375 0.12467484
0000a0 42 36 a2 bc f4 8c 5e bd 55 6b aa 3d fb e1 06 3e
       -0.019801263 -0.054333642 0.08321253 0.13172142
0000b0 3c 55 c9 3d 31 eb 84 bd 80 96 a1 bc d4 b2 83 bd
       0.0983071 -0.06490172 -0.019725084 -0.06430593
0000c0 3a c1 a9 be 17 9e fc bc cf 5e 86 3e 49 3b 85 3d
       -0.33155233 -0.030837102 0.26244208 0.06505448
0000d0 f1 bf 4a bb 76 9a 67 bc 58 99 a4 be 03 18 ae 3e
       -0.003093716 -0.014135947 -0.32148242 0.34002694
0000e0 cc 00 94 3d f7 03 07 be bc 37 1c bd 85 6f cc 3c
       0.072267145 -0.13185106 -0.03813909 0.02495552
0000f0 2c 07 d4 bd d0 b1 db 3c 0a 21 16 3c 79 95 a8 bc
       -0.103529304 0.026818186 0.009163151 -0.020579087
000100 cf 02 2d be 1e 7d 23 3d 24 72 dd bd 1e 45 71 3e
       -0.16895603 0.039914243 -0.10812786 0.23561522
000110 9c 49 9d 3b 1b cc bf 3d 23 eb f6 3d 29 fd 3a bd
       0.0048000347 0.09365102 0.120565675 -0.04565159
000120 00 9c c5 bd 68 45 15 be 95 b2 40 3c e8 c2 75 bd
       -0.09648895 -0.14577258 0.011761327 -0.06000033
000130 b9 25 0a 3d 46 18 a5 3d d7 19 a5 bc 6b 77 e7 bd
       0.03372738 0.080612704 -0.020153923 -0.11302074
000140 60 d8 d4 bb 44 73 07 bd 46 89 75 3d b1 df 32 bc
       -0.0064955205 -0.03306891 0.059945367 -0.01091759
000150 8f f8 a4 3d 0a 0e 70 bd f5 16 8a 3c 1f 33 86 be
       0.08055221 -0.05860714 0.01685665 -0.26210877
000160 ae 4d 6a be bd fb 0a bb 1e f4 c3 3d d1 4b aa bd
       -0.22881195 -0.0021207177 0.09568046 -0.08315242
000170 2c c9 0e bd 2f 43 50 3d b3 12 33 3d ad 8e 8b 3c
       -0.03485982 0.05084532 0.043719005 0.017035807
000180 82 c2 e0 3d 8e a2 a3 3d 2a 16 97 bd 9f 02 3d 3e
       0.109745994 0.07989989 -0.07377274 0.18458031
000190 32 f2 a9 bc 00 b3 84 3d b0 c6 98 bc 8e 5c 0f be
       -0.02074537 0.06479454 -0.01864943 -0.1400015
0001a0 05 3c 8b 3d 96 e9 03 bc b6 63 f2 bc e1 ce ce bd
       0.06798557 -0.008051297 -0.029588562 -0.10098053
0001b0 e2 f9 3e be a5 b7 66 3e 50 dc 46 bd 61 11 83 bc
       -0.1865001 0.22530992 -0.04854995 -0.015999498
0001c0 3e 98 dc bc c2 93 33 bd 7d 31 9d be e3 be 5b be
       -0.026928063 -0.043842085 -0.3070182 -0.21459536
0001d0 57 aa 92 bd 0c 7c 54 bc af 83 84 3c e2 59 08 be
       -0.07161396 -0.012969028 0.016176073 -0.13315538
0001e0 cf d8 3c be c1 16 94 3c 8d 99 d9 bc 3b 38 13 bd
       -0.18442081 0.018077256 -0.026562477 -0.035942297
0001f0 5a 0d 8b bc aa b5 0e 3d f6 e7 36 be b8 1e 45 3d
       -0.01697414 0.034841217 -0.17861924 0.048125
000200 d3 78 89 3d ae 4f f9 3c 01 4b 94 3e d9 a9 27 3e
       0.067124985 0.030433502 0.28963473 0.16373385
000210 6f 44 28 be 63 0b 09 3e 4f 32 2f 3e 0a 08 5a be
       -0.16432355 0.1338325 0.17109035 -0.21292129
000220 4b 27 4a 3e a8 2c 88 bd 94 b7 ce be 9c 04 4e 3c
       0.19741552 -0.066491425 -0.40374434 0.012574341
000230 fe 18 28 3e 9b 34 61 3e 5a 35 79 3c e3 10 45 3c
       0.16415784 0.21992724 0.015210474 0.012027952
000240 96 79 4e 3e 5e aa 60 bd c4 64 83 bd 2c b0 61 bd
       0.20163569 -0.054849975 -0.06415704 -0.05509965
000250 be fd 2a 3e c4 17 b2 bd ce 98 7a bb 69 33 b5 3e
       0.16698357 -0.08695939 -0.0038238051 0.35390785
000260 02 85 51 bd 87 1b a3 3c dd b4 7a be 1b 1d 50 3e
       -0.051152237 0.019910587 -0.24483056 0.20323603
000270 54 88 aa 3d 3d 3b 33 bd 0c 26 1c 3e 37 fe a5 3e
       0.08326784 -0.043757666 0.15248889 0.32420513
000280 23 54 10 bd 2c ca ea bd 3d a7 30 bd 85 85 54 3e
       -0.03523649 -0.114643425 -0.04312824 0.20754059
000290 d5 e4 02 3d 9c 88 5b 3d 30 8b 91 bc fa af c4 be
       0.031956512 0.053597078 -0.017766565 -0.3841551
0002a0 3b 3b 04 3c 8f 1d f1 bc 5c 82 f0 ba 95 71 52 be
       0.008070762 -0.02943304 -0.0018349397 -0.2055114
0002b0 4f b4 93 bc f2 e2 92 3d 8a b2 9d 3b a2 53 ef 3d
       -0.018030314 0.07172193 0.0048125433 0.116858736
0002c0 17 e1 9e be fb a3 88 bd 2f c9 8c bd c4 fc 83 bd
       -0.31031105 -0.06671902 -0.0687431 -0.064446956
0002d0 ec 6f 82 3e de dd 4f be 71 6e 3b be 47 f1 47 3e
       0.25476015 -0.2029948 -0.18303849 0.19525634
0002e0 96 09 41 bd b3 bd 19 3e 6b ea a4 bd 54 bc 60 3c
       -0.047128282 0.15013771 -0.08052524 0.013716776
0002f0 e5 c1 68 be be 3b 83 3d af a9 aa 3d b1 62 12 3d
       -0.22730215 0.06407879 0.08333146 0.03573865
000300 02 c7 33 3e c1 db 84 bc 1e 9a 23 bd 13 32 8a 3d
       0.17556384 -0.016218068 -0.0399419 0.06747832
000310 5a 8b 8d bd 52 8b 4c bd ed 2e a5 be bd 3b 80 3e
       -0.06911345 -0.049937554 -0.32262364 0.25045577
000320 84 fc a2 3d 40 6f 79 be 48 25 1f 3e d9 28 90 be
       0.0795832 -0.24358845 0.15541565 -0.28156164
000330 56 e0 84 be 61 f7 85 3d 15 02 d3 bc 04 61 14 3c
       -0.25952405 0.065413244 -0.025757829 0.009056333
000340 dd 74 74 bd a3 06 a2 3d c4 39 58 3c 85 07 cb 3d
       -0.059681762 0.07911422 0.013197366 0.099135436
000350 bf 0d 6c 3c be 59 92 3c 8e fc 7a bd fb 16 90 bc
       0.014407574 0.017865058 -0.06127601 -0.017589083
000360 48 76 15 3e 3e 5b 4b bc 6d a0 e8 3d cd 15 a5 3d
       0.14595902 -0.012411891 0.11358724 0.08060799
000370 d8 63 f3 3c 1d ab 92 3d b1 39 96 bc 22 eb ff bc
       0.029710695 0.071615435 -0.018338056 -0.03124005
000380 b9 61 a1 3d 81 30 59 be 76 f9 63 3e 23 a4 1d 3e
       0.07879967 -0.21209909 0.2226313 0.15394644
000390 20 74 0f 3e d4 1e 87 3d c1 66 ab 3d fe 84 dd 3d
       0.14009142 0.06597677 0.08369208 0.10816382
0003a0 99 70 b1 bd 09 91 94 bd 8f d0 35 bd fb 41 f0 3d
       -0.086640544 -0.07254226 -0.04438835 0.11731335
0003b0 ac 80 5c bd 0b 1d ee 3d ec 29 c0 bd c7 af 37 3c
       -0.05383365 0.11626633 -0.09382996 0.011211342
0003c0 7e 2b 4e 3d fe 9c a8 be 15 83 7e 3d 7b 79 0f 3d
       0.050334446 -0.32932276 0.06213673 0.035027962
0003d0 5d ef af 3d 66 47 5a bd 4e 1a 36 3b fd 9e 71 bb
       0.08590577 -0.053290747 0.0027786675 -0.0036868446
0003e0 cd 77 39 be 85 29 4b be 1a 2f 86 3d db bd 04 3d
       -0.18112107 -0.19840057 0.06551953 0.032407623
0003f0 76 e1 d8 3c e5 b8 b5 bb 8d 3e 49 3c 79 9c 4a bd
       0.026474696 -0.005545723 0.01228298 -0.04946563

fc2.bias f4 [64]
000000 90 27 0e bd bf 85 5a 3e 10 81 0a bd b5 45 35 be
       -0.0347057 0.21340083 -0.03381449 -0.17702372
000010 7a 73 41 3e 86 a1 2c 3d e4 e2 85 3e b0 da 86 3c
       0.18891707 0.04214623 0.26149666 0.0164617
000020 03 06 10 3e de c4 85 bc 89 a5 c3 3d b8 6a 08 3d
       0.14064793 -0.016329225 0.09553058 0.0333049
000030 69 6d 4a be bc 0c 26 be 02 8b ed 3d c7 43 01 3e
       -0.19768299 -0.16215795 0.11598779 0.12623511
000040 9e 3f 6f be 0e e8 e4 bd 8a bc fb 3d 3f 59 93 3d
       -0.23364112 -0.111770734 0.1229182 0.07194757
000050 9e 67 9c 3e 1d 83 a2 bd a2 5c c3 bd 75 c4 e1 bd
       0.30547804 -0.07935164 -0.09539153 -0.11023799
000060 c5 aa 70 be 4d 1b c0 3e 42 c9 9d 3e 74 92 ea bd
       -0.23502643 0.3752083 0.3081761 -0.11453715
000070 0b 83 79 bc bd e3 26 bb bd d0 c5 bc 36 07 30 be
       -0.015228997 -0.0025465332 -0.024147386 -0.17190251
000080 30 c8 87 be 25 85 2c 3e c0 6e 80 bd f1 63 df bd
       -0.26519918 0.16847666 -0.06271124 -0.10907734
000090 4e 37 4b 3d dc 69 ee bd b4 52 5e be 88 21 ae bb
       0.04961329 -0.11641285 -0.21711236 -0.005314056
0000a0 34 28 87 bd 39 e9 7b 3e d7 cc 39 bc 40 94 2c 3c
       -0.06599465 0.24600686 -0.0113403415 0.010533392
0000b0 3c 99 03 bd ed 7f 50 be 3c 6c 2b bd 6b 88 b6 bc
       -0.032128558 -0.203613 -0.041851267 -0.022281846
0000c0 0f 77 04 be 1a 40 37 3c c8 64 1b 3e d4 01 d7 bd
       -0.12936042 0.011184717 0.15175164 -0.104983956
0000d0 45 f8 a5 bc 72 2c 5d 3c 00 2c d9 bc 17 0a 99 3e
       -0.020259986 0.013499366 -0.026510239 0.2989051
0000e0 7a 4f 95 3e e5 b3 86 3e 2e 2c 90 bd ef ff d7 3c
       0.29162198 0.26309124 -0.070396766 0.026367156
0000f0 da 8e d0 bd 79 f1 01 be 67 7e 41 be f2 75 8a bd
       -0.10183497 -0.12689771 -0.18895875 -0.067607775

fc3.weight f4 [10, 64]
000000 93 40 95 be e5 3f 52 3e de dd b3 be 31 37 e3 3d
       -0.2915083 0.20532186 -0.3513021 0.11094511
000010 36 dd 4e 3e 27 35 04 3c 77 99 94 3d 7d d8 6f 3e
       0.20201573 0.008069313 0.072558336 0.23422427
000020 ad fb 93 3d e1 9f 8d be fb 23 a6 3e 64 b3 f4 be
       0.07225738 -0.2766104 0.32449326 -0.47793114
000030 c1 5e e7 be 05 23 30 bd e9 58 6b 3d b6 d8 d7 be
       -0.4518948 -0.043002147 0.05745784 -0.42157525
000040 70 26 bd 3c 41 5c 70 3d b0 00 14 be da 3a 8a be
       0.023089617 0.05868173 -0.14453387 -0.26998025
000050 33 8d a9 be cc bd bb bc a2 d6 b5 3d e8 39 16 bf
       -0.3311554 -0.02291765 0.088788286 -0.5868211
000060 cc e1 63 3e 16 43 ec be f0 3f 14 3e b1 db 4e 3d
       0.22254103 -0.46144933 0.14477515 0.050502483
000070 d8 b3 42 be d7 be a8 3d 8c 28 90 3d 8a 2b 8f 3d
       -0.19013917 0.08239525 0.07038984 0.06990726
000080 74 fd e4 bd 2d da 10 be df c4 fe be 93 41 b3 be
       -0.11181155 -0.14145727 -0.49759576 -0.35010967
000090 7a ce 40 3e d1 bb 7a 3e 84 26 a5 3c 83 75 c8 3b
       0.18828765 0.24485709 0.020159967 0.006117524
0000a0 ea 39 94 3d 9f ac 8b be 96 00 9b bd f4 bb 98 be
       0.07237609 -0.27280137 -0.07568471 -0.29830897
0000b0 6d a9 20 3d f8 ef 6c 3d 50 54 41 be c2 37 43 3e
       0.039224077 0.05784604 -0.18879819 0.19064239
0000c0 64 99 1f be 96 0e 9e be a0 27 12 be 81 ee b0 bd
       -0.15585858 -0.30870503 -0.14272928 -0.08639241
0000d0 17 55 05 3d d4 c4 cd 3d 01 5e 3c 3e 02 2d 32 3d
       0.03255185 0.100473076 0.18395235 0.043499954
0000e0 8a 95 2d 3b 5b b2 e5 bd 39 3a e4 3d a3 eb d9 be
       0.0026486837 -0.11215659 0.111439176 -0.4256259
0000f0 c8 d8 a4 3e 43 7e 80 3e 44 24 e3 be 7e 0b 35 be
       0.3219664 0.2509633 -0.44363606 -0.17680165
000100 8e 72 d3 be ff 95 52 be 87 19 c4 bd 87 6f 85 3e
       -0.41298336 -0.20565031 -0.095751815 0.2606165
000110 be c4 51 bb fe 70 e5 be 5d 1f c6 be bb 6b ff bd
       -0.0032008137 -0.4481277 -0.38695803 -0.1247172
000120 d1 e5 68 3d 96 95 9a be 9d ed 7b 3c 5f 67 86 be
       0.056859795 -0.3019225 0.015376476 -0.2625074
000130 c3 8c 09 3f 4d 6e b0 bc 76 b5 1f be d3 e5 67 be
       0.5373041 -0.02153697 -0.15596566 -0.22646265
000140 1b 36 e4 bd be a1 13 bf 9c 6b 0c bf 3e b5 31 3e
       -0.11143132 -0.57668674 -0.548517 0.17354295
000150 dc ec ba 3d 75 93 82 3b 17 5d b3 bd fc f9 36 3e
       0.091272086 0.0039848634 -0.0875799 0.17868799
000160 a5 f7 0c 3e 97 89 95 be 18 9c e5 bd ff 59 04 3e
       0.13766344 -0.29206535 -0.11211413 0.12924956
000170 cc fd 77 be 8a 74 7b be 50 de b7 bd cf 4c a6 3c
       -0.2421791 -0.24556175 -0.089779496 0.020300297
000180 44 80 16 3d c6 26 6f 3e 25 6c 51 be cb 81 0e 3e
       0.036743417 0.23354635 -0.2045141 0.139167
000190 55 16 54 3d 5d b3 38 be 3a ee db be 1d 1b 96 bd
       0.05177911 -0.18037172 -0.4295519 -0.0732939
0001a0 8d 85 41 3c 7e 69 21 be 54 79 e5 bd 04 47 97 3d
       0.011811626 -0.15762898 -0.11204782 0.07386592
0001b0 07 ab 85 3e 4b 8e e0 bd ef d3 d5 3d 3f 05 d9 bd
       0.26107046 -0.1096464 0.10440814 -0.10596704
0001c0 ab c9 10 3e a0 b0 8e 3e 57 02 99 be 06 5d 8d bd
       0.1413943 0.2786913 -0.29884598 -0.069025084
0001d0 09 71 c1 3d 3b b2 96 3d 15 6c ef be 91 af 41 be
       0.09445388 0.073582135 -0.46762148 -0.1891463
0001e0 34 57 11 3e 33 e5 7b be 52 4e cc 3d ea 6b 62 3e
       0.14193422 -0.24599151 0.09975876 0.22111478
0001f0 52 d8 62 3e 5b 88 d3 3c 3f 2b 3f 3e cc ae 70 3d
       0.22152832 0.025821855 0.18668841 0.05876045
000200 53 e3 cf 3d 8e 43 28 be 30 64 6f be 06 99 e4 3d
       0.101507805 -0.1643202 -0.23378062 0.111619994
000210 64 79 25 bb 1a 85 ac 3d 56 69 94 bd 78 54 20 3d
       -0.0025249356 0.084238246 -0.07246654 0.039143056
000220 d2 fa 55 3c ea 1d 64 3d ca 30 b9 bd 0c 0d f8 bd
       0.0130602885 0.05569259 -0.09042509 -0.121118635
000230 14 05 57 be 0e c3 e3 3e e8 ce d9 3c 2f dc f6 3b
       -0.20998031 0.44484752 0.026587918 0.007533572
000240 f2 cb a8 3d b2 1d 11 be c7 00 dd 3d ae ba 34 3e
       0.082420245 -0.14171484 0.10791164 0.17649338
000250 ac 0d 86 3d b0 9c ae 3c 26 4a 28 3d a3 f2 e3 3c
       0.065455765 0.021314949 0.04108634 0.02782566
000260 f8 9c 00 3d c5 cd ad be ce d8 b6 3d f4 3e 4e be
       0.031399697 -0.33946052 0.08928071 -0.20141202
000270 14 68 d4 be 79 f4 8b be 11 28 a3 bc d3 48 21 be
       -0.41485655 -0.27334955 -0.019916566 -0.15750436
000280 2f 45 7a 3e 9b 92 e9 be e5 54 a6 bd 79 ba ba 3d
       0.24440454 -0.45619664 -0.08121661 0.09117598
000290 a1 09 a0 3d d2 39 4c bc 15 85 d1 be 5f 73 15 3d
       0.078143366 -0.012464957 -0.40921846 0.03648698
0002a0 40 02 6a 3c b1 b3 44 3e 2d e5 15 be 96 83 6f be
       0.014282763 0.19209172 -0.14638205 -0.2339004
0002b0 af b0 29 bf 0d ee 88 3d f3 b0 ba be 93 c4 79 3e
       -0.6628522 0.066860296 -0.36463127 0.24391393
0002c0 9c bc 9a 3e 75 d1 da bc 0a 59 db 38 59 6e 1d 3d
       0.30222023 -0.026711205 0.000104593186 0.038435314
0002d0 06 32 96 bd 28 5f 3a 3e 1e 70 fa be 65 dc 34 3e
       -0.0733376 0.18200362 -0.48913664 0.17662199
0002e0 b1 12 ec be b6 01 bd 3d 39 b1 1b bd d5 8b b6 3d
       -0.4610801 0.09228842 -0.03801081 0.089133896
0002f0 e0 8b 39 3e 0b ae 58 3e 6b 3c b3 3c d8 a1 29 3e
       0.18119764 0.21160142 0.021879395 0.16565645
000300 fd a2 17 be aa bd 32 3e 10 30 81 be 8e 34 26 3e
       -0.14808269 0.17455164 -0.2523198 0.16230986
000310 8f ae 85 3d 0a 0c d2 bd db 00 3c 3b fe ed fc be
       0.06527435 -0.102562025 0.0028687033 -0.49400324
000320 5d c6 11 3e 25 82 17 3e 4d c1 b8 3d 24 0d 42 3e
       0.14235826 0.1479574 0.09021244 0.18950325
000330 24 b4 4d 3c a6 ec 4c be e3 38 73 be 3b 43 0c bd
       0.012555156 -0.20012149 -0.2375217 -0.034243803
000340 a3 ea 79 be 35 00 a4 bd 0b 09 5c be 22 e8 4f 3e
       -0.24405913 -0.08007852 -0.21487825 0.20303395
000350 6f 21 94 bc 63 f7 fd 3d f1 eb c9 3d a9 36 42 3e
       -0.018082349 0.12400701 0.098594554 0.18966164
000360 d2 20 8e 3d 17 b8 12 3e 6f 5d a2 3d 99 07 f8 3d
       0.06939854 0.14328037 0.07927977 0.12110824
000370 10 d9 dd 3d 71 ea ca 3c 26 c5 04 3d fb 2b 9a 3e
       0.10832417 0.024769993 0.032414578 0.3011168
000380 ad 88 90 bc 80 e3 eb be db 6c 5a 3e 37 3b 60 3d
       -0.017643297 -0.46072006 0.21330588 0.05474397
000390 c9 0b cc 3d c5 cf cb 3b db 82 08 bf 1a f1 2e be
       0.09963185 0.0062198364 -0.5332467 -0.1708416
0003a0 fb c2 af bb 6a 43 8f 3e 2d 76 6e 3e ff be 11 3e
       -0.0053638197 0.2798112 0.23287268 0.14233015
0003b0 7a db bd bd d6 9f 09 3d 8c 5d 01 bf 3e ad c0 bd
       -0.092703775 0.033599697 -0.50533366 -0.09408043
0003c0 2f 7f 13 be 2b 4c 8c 3d 4e 68 d6 3d 03 76 25 bd
       -0.14403985 0.068504654 0.10469113 -0.040395748
0003d0 0a c0 d0 3c 17 7d 8b 3d 26 7d e8 3d 91 de 3e be
       0.025482196 0.06810968 0.11351995 -0.1863959
0003e0 68 f1 c9 be 97 58 c8 3b 4a 0b cb 3c 9a 78 55 be
       -0.3944199 0.0061140764 0.024785656 -0.20846787
0003f0 40 e1 8e be 5c 25 81 bc 83 76 a9 3d 77 39 f3 bd
       -0.27906227 -0.015764885 0.082745574 -0.11876195

fc3.bias f4 [10]
000000 65 80 96 bd 69 f9 0a be cd 7f 75 be 92 22 10 bd
       -0.07348708 -0.13571705 -0.23974533 -0.03518922
000010 af 01 28 3e c7 be a5 bd 1a 44 e3 3c 95 87 9c be
       0.16406892 -0.080930285 0.027742434 -0.3057219
000020 a6 a8 02 3f a6 20 8f bd
       0.5103859 -0.06988649
